…
    (norm): LlamaRMSNorm((1024,), eps=1e-05)
    (rotary_emb): LlamaRotaryEmbedding()
  )
  (lm_head): Linear(in_features=1024, out_features=128256, bias=False)
)
===============================================================================================
Layer (type:depth-idx)                        Output Shape              Param #
===============================================================================================
LlamaForCausalLM                              --                        --
├─LlamaModel: 1-1                             --                        --
│    └─Embedding: 2-1                         [4, 512, 1024]            131,334,144
│    └─LlamaRotaryEmbedding: 2-2              [1, 512, 64]              --
│    └─ModuleList: 2-3                        --                        --
│    │    └─LlamaDecoderLayer: 3-1            [4, 512, 1024]            11,798,528
│    │    └─LlamaDecoderLayer: 3-2            [4, 512, 1024]            11,798,528
│    │    └─LlamaDecoderLayer: 3-3            [4, 512, 1024]            11,798,528
│    │    └─LlamaDecoderLayer: 3-4            [4, 512, 1024]            11,798,528
│    │    └─LlamaDecoderLayer: 3-5            [4, 512, 1024]            11,798,528
│    │    └─LlamaDecoderLayer: 3-6            [4, 512, 1024]            11,798,528
│    │    └─LlamaDecoderLayer: 3-7            [4, 512, 1024]            11,798,528
│    │    └─LlamaDecoderLayer: 3-8            [4, 512, 1024]            11,798,528
│    │    └─LlamaDecoderLayer: 3-9            [4, 512, 1024]            11,798,528
│    │    └─LlamaDecoderLayer: 3-10           [4, 512, 1024]            11,798,528
│    │    └─LlamaDecoderLayer: 3-11           [4, 512, 1024]            11,798,528
│    │    └─LlamaDecoderLayer: 3-12           [4, 512, 1024]            11,798,528
│    └─LlamaRMSNorm: 2-4                      [4, 512, 1024]            1,024
├─Linear: 1-2                                 [4, 512, 128256]          131,334,144
===============================================================================================
Total params: 404,251,648
Trainable params: 404,251,648
Non-trainable params: 0
Total mult-adds (Units.GIGABYTES): 1.62
===============================================================================================
Input size (MB): 0.02
Forward/backward pass size (MB): 4450.16
Params size (MB): 1617.01
…
